…
igmoid&#039;</span><span class="p">))</span>


<span class="n">model</span><span class="o">.</span><span class="n">summary</span><span class="p">()</span>
</pre></div>

</div>
</div>
</div>

<div class="output_wrapper">
<div class="output">


<div class="output_area">

<div class="prompt"></div>


<div class="output_subarea output_stream output_stdout output_text">
<pre>_________________________________________________________________
Layer (type)                 Output Shape              Param #   
=================================================================
conv2d_1 (Conv2D)            (None, 329, 329, 32)      864       
_________________________________________________________________
batch_normalization_1 (Batch (None, 329, 329, 32)      128       
_________________________________________________________________
dropout_1 (Dropout)          (None, 329, 329, 32)      0         
_________________________________________________________________
max_pooling2d_1 (MaxPooling2 (None, 164, 164, 32)      0         
_________________________________________________________________
conv2d_2 (Conv2D)            (None, 162, 162, 64)      18432     
_________________________________________________________________
batch_normalization_2 (Batch (None, 162, 162, 64)      256       
_________________________________________________________________
dropout_2 (Dropout)          (None, 162, 162, 64)      0         
_________________________________________________________________
max_pooling2d_2 (MaxPooling2 (None, 81, 81, 64)        0         
_________________________________________________________________
conv2d_3 (Conv2D)            (None, 79, 79, 64)        36864     
_________________________________________________________________
batch_normalization_3 (Batch (None, 79, 79, 64)        256       
_________________________________________________________________
dropout_3 (Dropout)          (None, 79, 79, 64)        0         
_________________________________________________________________
flatten_1 (Flatten)          (None, 399424)            0         
_________________________________________________________________
dense_1 (Dense)              (None, 512)               204505600 
_________________________________________________________________
batch_normalization_4 (Batch (None, 512)               2048      
_________________________________________________________________
dropout_4 (Dropout)          (None, 512)               0         
_________________________________________________________________
dense_2 (Dense)              (None, 79)                40527     
=================================================================
Total params: 204,604,975
Trainable params: 204,603,631
Non-trainable params: 1,344
_________________________________________________________________
</pre>
</div>
</div>

</div>
</div>

</div>
<div class="cell border-box-sizing code_cell rendered">
<div class="input">
<div class="prompt input_prompt">In&nbsp;[181]:</div>
<div class="inner_cell">
…
<span class="n">conv_base</span> <span class="o">=</span> <span class="n">conv_base_vgg19</span>
<span class="n">conv_base</span><span class="o">.</span><span class="n">summary</span><span class="p">()</span>
</pre></div>

</div>
</div>
</div>

<div class="output_wrapper">
<div class="output">


<div class="output_area">

<div class="prompt"></div>


<div class="output_subarea output_stream output_stdout output_text">
<pre>_________________________________________________________________
Layer (type)                 Output Shape              Param #   
=================================================================
input_1 (InputLayer)         (None, 331, 331, 3)       0         
_________________________________________________________________
block1_conv1 (Conv2D)        (None, 331, 331, 64)      1792      
_________________________________________________________________
block1_conv2 (Conv2D)        (None, 331, 331, 64)      36928     
_________________________________________________________________
block1_pool (MaxPooling2D)   (None, 165, 165, 64)      0         
_________________________________________________________________
block2_conv1 (Conv2D)        (None, 165, 165, 128)     73856     
_________________________________________________________________
block2_conv2 (Conv2D)        (None, 165, 165, 128)     147584    
_________________________________________________________________
block2_pool (MaxPooling2D)   (None, 82, 82, 128)       0         
_________________________________________________________________
block3_conv1 (Conv2D)        (None, 82, 82, 256)       295168    
_________________________________________________________________
block3_conv2 (Conv2D)        (None, 82, 82, 256)       590080    
_________________________________________________________________
block3_conv3 (Conv2D)        (None, 82, 82, 256)       590080    
_________________________________________________________________
block3_conv4 (Conv2D)        (None, 82, 82, 256)       590080    
_________________________________________________________________
block3_pool (MaxPooling2D)   (None, 41, 41, 256)       0         
_________________________________________________________________
block4_conv1 (Conv2D)        (None, 41, 41, 512)       1180160   
_________________________________________________________________
block4_conv2 (Conv2D)        (None, 41, 41, 512)       2359808   
_________________________________________________________________
block4_conv3 (Conv2D)        (None, 41, 41, 512)       2359808   
_________________________________________________________________
block4_conv4 (Conv2D)        (None, 41, 41, 512)       2359808   
_________________________________________________________________
block4_pool (MaxPooling2D)   (None, 20, 20, 512)       0         
_________________________________________________________________
block5_conv1 (Conv2D)        (None, 20, 20, 512)       2359808   
_________________________________________________________________
block5_conv2 (Conv2D)        (None, 20, 20, 512)       2359808   
_________________________________________________________________
block5_conv3 (Conv2D)        (None, 20, 20, 512)       2359808   
_________________________________________________________________
block5_conv4 (Conv2D)        (None, 20, 20, 512)       2359808   
_________________________________________________________________
block5_pool (MaxPooling2D)   (None, 10, 10, 512)       0         
=================================================================
Total params: 20,024,384
Trainable params: 20,024,384
Non-trainable params: 0
_________________________________________________________________
</pre>
</div>
</div>

</div>
</div>

</div>
<div class="cell border-box-sizing code_cell rendered">
<div class="input">
<div class="prompt input_prompt">In&nbsp;[183]:</div>
<div class="inner_cell">
…
lass="n">l2</span><span class="p">()))</span>

<span class="n">model</span><span class="o">.</span><span class="n">summary</span><span class="p">()</span>
</pre></div>

</div>
</div>
</div>

<div class="output_wrapper">
<div class="output">


<div class="output_area">

<div class="prompt"></div>


<div class="output_subarea output_stream output_stdout output_text">
<pre>_________________________________________________________________
Layer (type)                 Output Shape              Param #   
=================================================================
vgg19 (Model)                (None, 10, 10, 512)       20024384  
_________________________________________________________________
flatten_2 (Flatten)          (None, 51200)             0         
_________________________________________________________________
dense_3 (Dense)              (None, 1024)              52429824  
_________________________________________________________________
batch_normalization_5 (Batch (None, 1024)              4096      
_________________________________________________________________
dropout_5 (Dropout)          (None, 1024)              0         
_________________________________________________________________
dense_4 (Dense)              (None, 79)                80975     
=================================================================
Total params: 72,539,279
Trainable params: 52,512,847
Non-trainable params: 20,026,432
_________________________________________________________________
</pre>
</div>
</div>

</div>
</div>

</div>
<div class="cell border-box-sizing code_cell rendered">
<div class="input">
<div class="prompt input_prompt">In&nbsp;[184]:</div>
<div class="inner_cell">
…
