…
lu')) model.add(layers.BatchNormalization()) model.add(layers.Dropout(0.5)) model.add(layers.Flatten(input_shape = (img_width, img_height, img_chan))) model.add(layers.Dense(512, activation='relu')) model.add(layers.BatchNormalization()) model.add(layers.Dropout(0.5)) # model.add(layers.Flatten()) model.add(layers.Dense(len(uniq_cls), activation='sigmoid')) model.summary() _________________________________________________________________ Layer (type)                 Output Shape              Param # ================================================================= conv2d_1 (Conv2D)            (None, 329, 329, 32)      864 _________________________________________________________________ batch_normalization_1 (Batch (None, 329, 329, 32)      128 _________________________________________________________________ dropout_1 (Dropout)          (None, 329, 329, 32)      0 _________________________________________________________________ max_pooling2d_1 (MaxPooling2 (None, 164, 164, 32)      0 _________________________________________________________________ conv2d_2 (Conv2D)            (None, 162, 162, 64)      18432 _________________________________________________________________ batch_normalization_2 (Batch (None, 162, 162, 64)      256 _________________________________________________________________ dropout_2 (Dropout)          (None, 162, 162, 64)      0 _________________________________________________________________ max_pooling2d_2 (MaxPooling2 (None, 81, 81, 64)        0 _________________________________________________________________ conv2d_3 (Conv2D)            (None, 79, 79, 64)        36864 _________________________________________________________________ batch_normalization_3 (Batch (None, 79, 79, 64)        256 _________________________________________________________________ dropout_3 (Dropout)          (None, 79, 79, 64)        0 _________________________________________________________________ flatten_1 (Flatten)          (None, 399424)            0 _________________________________________________________________ dense_1 (Dense)              (None, 512)               204505600 _________________________________________________________________ batch_normalization_4 (Batch (None, 512)               2048 _________________________________________________________________ dropout_4 (Dropout)          (None, 512)               0 _________________________________________________________________ dense_2 (Dense)              (None, 79)                40527 ================================================================= Total params: 204,604,975 Trainable params: 204,603,631 Non-trainable params: 1,344 _________________________________________________________________ In [181]: model_name='convbase_vgg19_img_dim_331_optimizer_adam_with_lr_on_plateau_regularizers_l2_dense_1024' + str(cur_time) In [182]: from keras import layers from keras import mod
…
                                   input_shape=(img_width, img_height, img_chan)) # Model 6 #from keras.applications import NASNetLarge #conv_base_nasnet = NASNetLarge(weights = 'imagenet', #                                   include_top = False, #                                 input_shape=(img_width, img_height, img_chan)) conv_base = conv_base_vgg19 conv_base.summary() _________________________________________________________________ Layer (type)                 Output Shape              Param # ================================================================= input_1 (InputLayer)         (None, 331, 331, 3)       0 _________________________________________________________________ block1_conv1 (Conv2D)        (None, 331, 331, 64)      1792 _________________________________________________________________ block1_conv2 (Conv2D)        (None, 331, 331, 64)      36928 _________________________________________________________________ block1_pool (MaxPooling2D)   (None, 165, 165, 64)      0 _________________________________________________________________ block2_conv1 (Conv2D)        (None, 165, 165, 128)     73856 _________________________________________________________________ block2_conv2 (Conv2D)        (None, 165, 165, 128)     147584 _________________________________________________________________ block2_pool (MaxPooling2D)   (None, 82, 82, 128)       0 _________________________________________________________________ block3_conv1 (Conv2D)        (None, 82, 82, 256)       295168 _________________________________________________________________ block3_conv2 (Conv2D)        (None, 82, 82, 256)       590080 _________________________________________________________________ block3_conv3 (Conv2D)        (None, 82, 82, 256)       590080 _________________________________________________________________ block3_conv4 (Conv2D)        (None, 82, 82, 256)       590080 _________________________________________________________________ block3_pool (MaxPooling2D)   (None, 41, 41, 256)       0 _________________________________________________________________ block4_conv1 (Conv2D)        (None, 41, 41, 512)       1180160 _________________________________________________________________ block4_conv2 (Conv2D)        (None, 41, 41, 512)       2359808 _________________________________________________________________ block4_conv3 (Conv2D)        (None, 41, 41, 512)       2359808 _________________________________________________________________ block4_conv4 (Conv2D)        (None, 41, 41, 512)       2359808 _________________________________________________________________ block4_pool (MaxPooling2D)   (None, 20, 20, 512)       0 _________________________________________________________________ block5_conv1 (Conv2D)        (None, 20, 20, 512)       2359808 _________________________________________________________________ block5_conv2 (Conv2D)        (None, 20, 20, 512)       2359808 _________________________________________________________________ block5_conv3 (Conv2D)        (None, 20, 20, 512)       2359808 _________________________________________________________________ block5_conv4 (Conv2D)        (None, 20, 20, 512)       2359808 _________________________________________________________________ block5_pool (MaxPooling2D)   (None, 10, 10, 512)       0 ================================================================= Total params: 20,024,384 Trainable params: 20,024,384 Non-trainable params: 0 _________________________________________________________________ In [183]: from keras import regularizers model = conv_base model = models.Sequential() conv_base.trainable = False model.add(conv_base) model.add(layers.Flatten()) model.add(layers.Dense(1024, activation='relu')) #activity_regularizer=regularizers.l1(0.01) model.add(layers.BatchNormalization()) model.add(layers.Dropout(0.5)) model.add(layers.Dense(len(uniq_cls), activation='sigmoid', kernel_regularizer=regularizers.l2())) model.summary() _________________________________________________________________ Layer (type)                 Output Shape              Param # ================================================================= vgg19 (Model)                (None, 10, 10, 512)       20024384 _________________________________________________________________ flatten_2 (Flatten)          (None, 51200)             0 _________________________________________________________________ dense_3 (Dense)              (None, 1024)              52429824 _________________________________________________________________ batch_normalization_5 (Batch (None, 1024)              4096 _________________________________________________________________ dropout_5 (Dropout)          (None, 1024)              0 _________________________________________________________________ dense_4 (Dense)              (None, 79)                80975 ================================================================= Total params: 72,539,279 Trainable params: 52,512,847 Non-trainable params: 20,026,432 _________________________________________________________________ In [184]: models_dir='./models' save_period=1 schedule = None In [185]: from keras.callbacks import LearningRateScheduler, ModelCheckpoint, TensorBoard from time import strftime, g
…
